…
[2021-06-17 03:13:05,316 PID:36049 INFO base.py __init__][2021-06-17 03:13:05,316 PID:36048 INFO base.py __init__][2021-06-17 03:13:05,316 PID:36050 INFO base.py __init__][2021-06-17 03:13:05,316 PID:36047 INFO base.py __init__] DoubleDQN:
- agent = <slm_lab.agent.Agent object at 0x7fdcba9f3908>
- action_pdtype = Categorical
- action_policy = <function epsilon_greedy at 0x7fdcbc8222f0>
- explore_var_spec = {'end_step': 1000000,
 'end_val': 0.01,
 'name': 'linear_decay',
 'start_step': 10000,
 'start_value': 1.0}
- training_start_step = 10000
- gamma = 0.99
- training_batch_iter = 1
- training_iter = 4
- training_frequency = 32
- to_train = 0
- explore_var_scheduler = <slm_lab.agent.algorithm.policy_util.VarScheduler object at 0x7fdcaca37668>
- net = ConvNet(
  (conv_model): Sequential(
    (0): Conv2d(4, 32, kernel_size=(8, 8), stride=(4, 4))
    (1): ReLU()
    (2): Conv2d(32, 64, kernel_size=(4, 4), stride=(2, 2))
    (3): ReLU()
    (4): Conv2d(64, 32, kernel_size=(3, 3), stride=(1, 1))
    (5): ReLU()
  )
  (fc_model): Sequential(
    (0): Linear(in_features=1568, out_features=512, bias=True)
    (1): ReLU()
  )
  (model_tail): Sequential(
    (0): Linear(in_features=512, out_features=10, bias=True)
    (1): Softmax(dim=None)
  )
  (loss_fn): SmoothL1Loss()
)
- target_net = ConvNet(
  (conv_model): Sequential(
    (0): Conv2d(4, 32, kernel_size=(8, 8), stride=(4, 4))
    (1): ReLU()
    (2): Conv2d(32, 64, kernel_size=(4, 4), stride=(2, 2))
    (3): ReLU()
    (4): Conv2d(64, 32, kernel_size=(3, 3), stride=(1, 1))
    (5): ReLU()
  )
  (fc_model): Sequential(
    (0): Linear(in_features=1568, out_features=512, bias=True)
    (1): ReLU()
  )
  (model_tail): Sequential(
    (0): Linear(in_features=512, out_features=10, bias=True)
    (1): Softmax(dim=None)
  )
  (loss_fn): SmoothL1Loss()
)
- net_names = ['net', 'target_net']
- optim = Adam (
Parameter Group 0
    amsgrad: False
    betas: (0.9, 0.999)
    eps: 1e-08
    lr: 0.0001
    weight_decay: 0
)
- lr_scheduler = <slm_lab.agent.net.net_util.NoOpLRScheduler object at 0x7fdcac9f9550>
- global_net = None
- global_target_net = None
- online_net = ConvNet(
  (conv_model): Sequential(
    (0): Conv2d(4, 32, kernel_size=(8, 8), stride=(4, 4))
    (1): ReLU()
    (2): Conv2d(32, 64, kernel_size=(4, 4), stride=(2, 2))
    (3): ReLU()
    (4): Conv2d(64, 32, kernel_size=(3, 3), stride=(1, 1))
    (5): ReLU()
  )
  (fc_model): Sequential(
    (0): Linear(in_features=1568, out_features=512, bias=True)
    (1): ReLU()
  )
  (model_tail): Sequential(
    (0): Linear(in_features=512, out_features=10, bias=True)
    (1): Softmax(dim=None)
  )
  (loss_fn): SmoothL1Loss()
)
- eval_net = ConvNet(
  (conv_model): Sequential(
    (0): Conv2d(4, 32, kernel_size=(8, 8), stride=(4, 4))
    (1): ReLU()
    (2): Conv2d(32, 64, kernel_size=(4, 4), stride=(2, 2))
    (3): ReLU()
    (4): Conv2d(64, 32, kernel_size=(3, 3), stride=(1, 1))
    (5): ReLU()
  )
  (fc_model): Sequential(
    (0): Linear(in_features=1568, out_features=512, bias=True)
    (1): ReLU()
  )
  (model_tail): Sequential(
    (0): Linear(in_features=512, out_features=10, bias=True)
    (1): Softmax(dim=None)
  )
  (loss_fn): SmoothL1Loss()
) DoubleDQN:
- agent = <slm_lab.agent.Agent object at 0x7f12c547e630>
- action_pdtype = Categorical
- action_policy = <function epsilon_greedy at 0x7f12d526a2f0>
- explore_var_spec = {'end_step': 1000000,
 'end_val': 0.01,
 'name': 'linear_decay',
 'start_step': 10000,
 'start_value': 1.0}
- training_start_step = 10000
- gamma = 0.99
- training_batch_iter = 1
- training_iter = 4
- training_frequency = 32
- to_train = 0
- explore_var_scheduler = <slm_lab.agent.algorithm.policy_util.VarScheduler object at 0x7f12c547eb38>
- net = ConvNet(
  (conv_model): Sequential(
    (0): Conv2d(4, 32, kernel_size=(8, 8), stride=(4, 4))
    (1): ReLU()
    (2): Conv2d(32, 64, kernel_size=(4, 4), stride=(2, 2))
    (3): ReLU()
    (4): Conv2d(64, 32, kernel_size=(3, 3), stride=(1, 1))
    (5): ReLU()
  )
  (fc_model): Sequential(
    (0): Linear(in_features=1568, out_features=512, bias=True)
    (1): ReLU()
  )
  (model_tail): Sequential(
    (0): Linear(in_features=512, out_features=10, bias=True)
    (1): Softmax(dim=None)
  )
  (loss_fn): SmoothL1Loss()
)
- target_net = ConvNet(
  (conv_model): Sequential(
    (0): Conv2d(4, 32, kernel_size=(8, 8), stride=(4, 4))
    (1): ReLU()
    (2): Conv2d(32, 64, kernel_size=(4, 4), stride=(2, 2))
    (3): ReLU()
    (4): Conv2d(64, 32, kernel_size=(3, 3), stride=(1, 1))
    (5): ReLU()
  )
  (fc_model): Sequential(
    (0): Linear(in_features=1568, out_features=512, bias=True)
    (1): ReLU()
  )
  (model_tail): Sequential(
    (0): Linear(in_features=512, out_features=10, bias=True)
    (1): Softmax(dim=None)
  )
  (loss_fn): SmoothL1Loss()
)
- net_names = ['net', 'target_net']
- optim = Adam (
Parameter Group 0
    amsgrad: False
    betas: (0.9, 0.999)
    eps: 1e-08
    lr: 0.0001
    weight_decay: 0
)
- lr_scheduler = <slm_lab.agent.net.net_util.NoOpLRScheduler object at 0x7f12c54434e0>
- global_net = None
- global_target_net = None
- online_net = ConvNet(
  (conv_model): Sequential(
    (0): Conv2d(4, 32, kernel_size=(8, 8), stride=(4, 4))
    (1): ReLU()
    (2): Conv2d(32, 64, kernel_size=(4, 4), stride=(2, 2))
    (3): ReLU()
    (4): Conv2d(64, 32, kernel_size=(3, 3), stride=(1, 1))
    (5): ReLU()
  )
  (fc_model): Sequential(
    (0): Linear(in_features=1568, out_features=512, bias=True)
    (1): ReLU()
  )
  (model_tail): Sequential(
    (0): Linear(in_features=512, out_features=10, bias=True)
    (1): Softmax(dim=None)
  )
  (loss_fn): SmoothL1Loss()
)
- eval_net = ConvNet(
  (conv_model): Sequential(
    (0): Conv2d(4, 32, kernel_size=(8, 8), stride=(4, 4))
    (1): ReLU()
    (2): Conv2d(32, 64, kernel_size=(4, 4), stride=(2, 2))
    (3): ReLU()
    (4): Conv2d(64, 32, kernel_size=(3, 3), stride=(1, 1))
    (5): ReLU()
  )
  (fc_model): Sequential(
    (0): Linear(in_features=1568, out_features=512, bias=True)
    (1): ReLU()
  )
  (model_tail): Sequential(
    (0): Linear(in_features=512, out_features=10, bias=True)
    (1): Softmax(dim=None)
  )
  (loss_fn): SmoothL1Loss()
) DoubleDQN:
- agent = <slm_lab.agent.Agent object at 0x7f7fb607e5c0>
- action_pdtype = Categorical
- action_policy = <function epsilon_greedy at 0x7f7fc5e6a2f0>
- explore_var_spec = {'end_step': 1000000,
 'end_val': 0.01,
 'name': 'linear_decay',
 'start_step': 10000,
 'start_value': 1.0}
- training_start_step = 10000
- gamma = 0.99
- training_batch_iter = 1
- training_iter = 4
- training_frequency = 32
- to_train = 0
- explore_var_scheduler = <slm_lab.agent.algorithm.policy_util.VarScheduler object at 0x7f7fb607e588>
- net = ConvNet(
  (conv_model): Sequential(
    (0): Conv2d(4, 32, kernel_size=(8, 8), stride=(4, 4))
    (1): ReLU()
    (2): Conv2d(32, 64, kernel_size=(4, 4), stride=(2, 2))
    (3): ReLU()
    (4): Conv2d(64, 32, kernel_size=(3, 3), stride=(1, 1))
    (5): ReLU()
  )
  (fc_model): Sequential(
    (0): Linear(in_features=1568, out_features=512, bias=True)
    (1): ReLU()
  )
  (model_tail): Sequential(
    (0): Linear(in_features=512, out_features=10, bias=True)
    (1): Softmax(dim=None)
  )
  (loss_fn): SmoothL1Loss()
)
- target_net = ConvNet(
  (conv_model): Sequential(
    (0): Conv2d(4, 32, kernel_size=(8, 8), stride=(4, 4))
    (1): ReLU()
    (2): Conv2d(32, 64, kernel_size=(4, 4), stride=(2, 2))
    (3): ReLU()
    (4): Conv2d(64, 32, kernel_size=(3, 3), stride=(1, 1))
    (5): ReLU()
  )
  (fc_model): Sequential(
    (0): Linear(in_features=1568, out_features=512, bias=True)
    (1): ReLU()
  )
  (model_tail): Sequential(
    (0): Linear(in_features=512, out_features=10, bias=True)
    (1): Softmax(dim=None)
  )
  (loss_fn): SmoothL1Loss()
)
- net_names = ['net', 'target_net']
- optim = Adam (
Parameter Group 0
    amsgrad: False
    betas: (0.9, 0.999)
    eps: 1e-08
    lr: 0.0001
    weight_decay: 0
)
- lr_scheduler = <slm_lab.agent.net.net_util.NoOpLRScheduler object at 0x7f7fb60434e0>
- global_net = None
- global_target_net = None
- online_net = ConvNet(
  (conv_model): Sequential(
    (0): Conv2d(4, 32, kernel_size=(8, 8), stride=(4, 4))
    (1): ReLU()
    (2): Conv2d(32, 64, kernel_size=(4, 4), stride=(2, 2))
    (3): ReLU()
    (4): Conv2d(64, 32, kernel_size=(3, 3), stride=(1, 1))
    (5): ReLU()
  )
  (fc_model): Sequential(
    (0): Linear(in_features=1568, out_features=512, bias=True)
    (1): ReLU()
  )
  (model_tail): Sequential(
    (0): Linear(in_features=512, out_features=10, bias=True)
    (1): Softmax(dim=None)
  )
  (loss_fn): SmoothL1Loss()
)
- eval_net = ConvNet(
  (conv_model): Sequential(
    (0): Conv2d(4, 32, kernel_size=(8, 8), stride=(4, 4))
    (1): ReLU()
    (2): Conv2d(32, 64, kernel_size=(4, 4), stride=(2, 2))
    (3): ReLU()
    (4): Conv2d(64, 32, kernel_size=(3, 3), stride=(1, 1))
    (5): ReLU()
  )
  (fc_model): Sequential(
    (0): Linear(in_features=1568, out_features=512, bias=True)
    (1): ReLU()
  )
  (model_tail): Sequential(
    (0): Linear(in_features=512, out_features=10, bias=True)
    (1): Softmax(dim=None)
  )
  (loss_fn): SmoothL1Loss()
)


 DoubleDQN:
- agent = <slm_lab.agent.Agent object at 0x7fe818872588>
- action_pdtype = Categorical
- action_policy = <function epsilon_greedy at 0x7fe82865d2f0>
- explore_var_spec = {'end_step': 1000000,
 'end_val': 0.01,
 'name': 'linear_decay',
 'start_step': 10000,
 'start_value': 1.0}
- training_start_step = 10000
- gamma = 0.99
- training_batch_iter = 1
- training_iter = 4
- training_frequency = 32
- to_train = 0
- explore_var_scheduler = <slm_lab.agent.algorithm.policy_util.VarScheduler object at 0x7fe818872630>
- net = ConvNet(
  (conv_model): Sequential(
    (0): Conv2d(4, 32, kernel_size=(8, 8), stride=(4, 4))
    (1): ReLU()
    (2): Conv2d(32, 64, kernel_size=(4, 4), stride=(2, 2))
    (3): ReLU()
    (4): Conv2d(64, 32, kernel_size=(3, 3), stride=(1, 1))
    (5): ReLU()
  )
  (fc_model): Sequential(
    (0): Linear(in_features=1568, out_features=512, bias=True)
    (1): ReLU()
  )
  (model_tail): Sequential(
    (0): Linear(in_features=512, out_features=10, bias=True)
    (1): Softmax(dim=None)
  )
  (loss_fn): SmoothL1Loss()
)
- target_net = ConvNet(
  (conv_model): Sequential(
    (0): Conv2d(4, 32, kernel_size=(8, 8), stride=(4, 4))
    (1): ReLU()
    (2): Conv2d(32, 64, kernel_size=(4, 4), stride=(2, 2))
    (3): ReLU()
    (4): Conv2d(64, 32, kernel_size=(3, 3), stride=(1, 1))
    (5): ReLU()
  )
  (fc_model): Sequential(
    (0): Linear(in_features=1568, out_features=512, bias=True)
    (1): ReLU()
  )
  (model_tail): Sequential(
    (0): Linear(in_features=512, out_features=10, bias=True)
    (1): Softmax(dim=None)
  )
  (loss_fn): SmoothL1Loss()
)
- net_names = ['net', 'target_net']
- optim = Adam (
Parameter Group 0
    amsgrad: False
    betas: (0.9, 0.999)
    eps: 1e-08
    lr: 0.0001
    weight_decay: 0
)
- lr_scheduler = <slm_lab.agent.net.net_util.NoOpLRScheduler object at 0x7fe818834550>
- global_net = None
- global_target_net = None
- online_net = ConvNet(
  (conv_model): Sequential(
    (0): Conv2d(4, 32, kernel_size=(8, 8), stride=(4, 4))
    (1): ReLU()
    (2): Conv2d(32, 64, kernel_size=(4, 4), stride=(2, 2))
    (3): ReLU()
    (4): Conv2d(64, 32, kernel_size=(3, 3), stride=(1, 1))
    (5): ReLU()
  )
  (fc_model): Sequential(
    (0): Linear(in_features=1568, out_features=512, bias=True)
    (1): ReLU()
  )
  (model_tail): Sequential(
    (0): Linear(in_features=512, out_features=10, bias=True)
    (1): Softmax(dim=None)
  )
  (loss_fn): SmoothL1Loss()
)
- eval_net = ConvNet(
  (conv_model): Sequential(
    (0): Conv2d(4, 32, kernel_size=(8, 8), stride=(4, 4))
    (1): ReLU()
    (2): Conv2d(32, 64, kernel_size=(4, 4), stride=(2, 2))
    (3): ReLU()
    (4): Conv2d(64, 32, kernel_size=(3, 3), stride=(1, 1))
    (5): ReLU()
  )
  (fc_model): Sequential(
    (0): Linear(in_features=1568, out_features=512, bias=True)
    (1): ReLU()
  )
  (model_tail): Sequential(
    (0): Linear(in_features=512, out_features=10, bias=True)
    (1): Softmax(dim=None)
  )
  (loss_fn): SmoothL1Loss()
)
[2021-06-17 03:13:05,320 PID:36050 INFO __init__.py __init__][2021-06-17 03:13:05,320 PID:36048 INFO __init__.py __init__][2021-06-17 03:13:05,320 PID:36047 INFO __init__.py __init__][2021-06-17 03:13:05,320 PID:36049 INFO __init__.py __init__] Agent:
- spec = {'cuda_offset': 0,
 'distributed': False,
…
[2021-06-17 04:39:46,619 PID:38690 INFO base.py __init__][2021-06-17 04:39:46,619 PID:38688 INFO base.py __init__][2021-06-17 04:39:46,619 PID:38689 INFO base.py __init__][2021-06-17 04:39:46,619 PID:38687 INFO base.py __init__] DoubleDQN:
- agent = <slm_lab.agent.Agent object at 0x7ff4b545c5f8>
- action_pdtype = Categorical
- action_policy = <function epsilon_greedy at 0x7ff4c52292f0>
- explore_var_spec = {'end_step': 1000000,
 'end_val': 0.01,
 'name': 'linear_decay',
 'start_step': 10000,
 'start_value': 1.0}
- training_start_step = 10000
- gamma = 0.99
- training_batch_iter = 1
- training_iter = 4
- training_frequency = 32
- to_train = 0
- explore_var_scheduler = <slm_lab.agent.algorithm.policy_util.VarScheduler object at 0x7ff4b545cac8>
- net = DuelingConvNet(
  (conv_model): Sequential(
    (0): Conv2d(4, 32, kernel_size=(8, 8), stride=(4, 4))
    (1): ReLU()
    (2): Conv2d(32, 64, kernel_size=(4, 4), stride=(2, 2))
    (3): ReLU()
    (4): Conv2d(64, 32, kernel_size=(3, 3), stride=(1, 1))
    (5): ReLU()
  )
  (fc_model): Sequential(
    (0): Linear(in_features=1568, out_features=512, bias=True)
    (1): ReLU()
  )
  (v): Linear(in_features=512, out_features=1, bias=True)
  (adv): Linear(in_features=512, out_features=10, bias=True)
  (model_tails): ModuleList(
    (0): Linear(in_features=512, out_features=1, bias=True)
    (1): Linear(in_features=512, out_features=10, bias=True)
  )
  (loss_fn): SmoothL1Loss()
)
- target_net = DuelingConvNet(
  (conv_model): Sequential(
    (0): Conv2d(4, 32, kernel_size=(8, 8), stride=(4, 4))
    (1): ReLU()
    (2): Conv2d(32, 64, kernel_size=(4, 4), stride=(2, 2))
    (3): ReLU()
    (4): Conv2d(64, 32, kernel_size=(3, 3), stride=(1, 1))
    (5): ReLU()
  )
  (fc_model): Sequential(
    (0): Linear(in_features=1568, out_features=512, bias=True)
    (1): ReLU()
  )
  (v): Linear(in_features=512, out_features=1, bias=True)
  (adv): Linear(in_features=512, out_features=10, bias=True)
  (model_tails): ModuleList(
    (0): Linear(in_features=512, out_features=1, bias=True)
    (1): Linear(in_features=512, out_features=10, bias=True)
  )
  (loss_fn): SmoothL1Loss()
)
- net_names = ['net', 'target_net']
- optim = Adam (
Parameter Group 0
    amsgrad: False
    betas: (0.9, 0.999)
    eps: 1e-08
    lr: 0.0001
    weight_decay: 0
)
- lr_scheduler = <slm_lab.agent.net.net_util.NoOpLRScheduler object at 0x7ff4b5423438>
- global_net = None
- global_target_net = None
- online_net = DuelingConvNet(
  (conv_model): Sequential(
    (0): Conv2d(4, 32, kernel_size=(8, 8), stride=(4, 4))
    (1): ReLU()
    (2): Conv2d(32, 64, kernel_size=(4, 4), stride=(2, 2))
    (3): ReLU()
    (4): Conv2d(64, 32, kernel_size=(3, 3), stride=(1, 1))
    (5): ReLU()
  )
  (fc_model): Sequential(
    (0): Linear(in_features=1568, out_features=512, bias=True)
    (1): ReLU()
  )
  (v): Linear(in_features=512, out_features=1, bias=True)
  (adv): Linear(in_features=512, out_features=10, bias=True)
  (model_tails): ModuleList(
    (0): Linear(in_features=512, out_features=1, bias=True)
    (1): Linear(in_features=512, out_features=10, bias=True)
  )
  (loss_fn): SmoothL1Loss()
)
- eval_net = DuelingConvNet(
  (conv_model): Sequential(
    (0): Conv2d(4, 32, kernel_size=(8, 8), stride=(4, 4))
    (1): ReLU()
    (2): Conv2d(32, 64, kernel_size=(4, 4), stride=(2, 2))
    (3): ReLU()
    (4): Conv2d(64, 32, kernel_size=(3, 3), stride=(1, 1))
    (5): ReLU()
  )
  (fc_model): Sequential(
    (0): Linear(in_features=1568, out_features=512, bias=True)
    (1): ReLU()
  )
  (v): Linear(in_features=512, out_features=1, bias=True)
  (adv): Linear(in_features=512, out_features=10, bias=True)
  (model_tails): ModuleList(
    (0): Linear(in_features=512, out_features=1, bias=True)
    (1): Linear(in_features=512, out_features=10, bias=True)
  )
  (loss_fn): SmoothL1Loss()
)
 DoubleDQN:
- agent = <slm_lab.agent.Agent object at 0x7f91bde9c588>
- action_pdtype = Categorical
- action_policy = <function epsilon_greedy at 0x7f91cdc6a2f0>
- explore_var_spec = {'end_step': 1000000,
 'end_val': 0.01,
 'name': 'linear_decay',
 'start_step': 10000,
 'start_value': 1.0}
- training_start_step = 10000
- gamma = 0.99
- training_batch_iter = 1
- training_iter = 4
- training_frequency = 32
- to_train = 0
- explore_var_scheduler = <slm_lab.agent.algorithm.policy_util.VarScheduler object at 0x7f91bde9c4e0>
- net = DuelingConvNet(
  (conv_model): Sequential(
    (0): Conv2d(4, 32, kernel_size=(8, 8), stride=(4, 4))
    (1): ReLU()
    (2): Conv2d(32, 64, kernel_size=(4, 4), stride=(2, 2))
    (3): ReLU()
    (4): Conv2d(64, 32, kernel_size=(3, 3), stride=(1, 1))
    (5): ReLU()
  )
  (fc_model): Sequential(
    (0): Linear(in_features=1568, out_features=512, bias=True)
    (1): ReLU()
  )
  (v): Linear(in_features=512, out_features=1, bias=True)
  (adv): Linear(in_features=512, out_features=10, bias=True)
  (model_tails): ModuleList(
    (0): Linear(in_features=512, out_features=1, bias=True)
    (1): Linear(in_features=512, out_features=10, bias=True)
  )
  (loss_fn): SmoothL1Loss()
)
- target_net = DuelingConvNet(
  (conv_model): Sequential(
    (0): Conv2d(4, 32, kernel_size=(8, 8), stride=(4, 4))
    (1): ReLU()
    (2): Conv2d(32, 64, kernel_size=(4, 4), stride=(2, 2))
    (3): ReLU()
    (4): Conv2d(64, 32, kernel_size=(3, 3), stride=(1, 1))
    (5): ReLU()
  )
  (fc_model): Sequential(
    (0): Linear(in_features=1568, out_features=512, bias=True)
    (1): ReLU()
  )
  (v): Linear(in_features=512, out_features=1, bias=True)
  (adv): Linear(in_features=512, out_features=10, bias=True)
  (model_tails): ModuleList(
    (0): Linear(in_features=512, out_features=1, bias=True)
    (1): Linear(in_features=512, out_features=10, bias=True)
  )
  (loss_fn): SmoothL1Loss()
)
- net_names = ['net', 'target_net']
- optim = Adam (
Parameter Group 0
    amsgrad: False
    betas: (0.9, 0.999)
    eps: 1e-08
    lr: 0.0001
    weight_decay: 0
)
- lr_scheduler = <slm_lab.agent.net.net_util.NoOpLRScheduler object at 0x7f91bde61470>
- global_net = None
- global_target_net = None
- online_net = DuelingConvNet(
  (conv_model): Sequential(
    (0): Conv2d(4, 32, kernel_size=(8, 8), stride=(4, 4))
    (1): ReLU()
    (2): Conv2d(32, 64, kernel_size=(4, 4), stride=(2, 2))
    (3): ReLU()
    (4): Conv2d(64, 32, kernel_size=(3, 3), stride=(1, 1))
    (5): ReLU()
  )
  (fc_model): Sequential(
    (0): Linear(in_features=1568, out_features=512, bias=True)
    (1): ReLU()
  )
  (v): Linear(in_features=512, out_features=1, bias=True)
  (adv): Linear(in_features=512, out_features=10, bias=True)
  (model_tails): ModuleList(
    (0): Linear(in_features=512, out_features=1, bias=True)
    (1): Linear(in_features=512, out_features=10, bias=True)
  )
  (loss_fn): SmoothL1Loss()
)
- eval_net = DuelingConvNet(
  (conv_model): Sequential(
    (0): Conv2d(4, 32, kernel_size=(8, 8), stride=(4, 4))
    (1): ReLU()
    (2): Conv2d(32, 64, kernel_size=(4, 4), stride=(2, 2))
    (3): ReLU()
    (4): Conv2d(64, 32, kernel_size=(3, 3), stride=(1, 1))
    (5): ReLU()
  )
  (fc_model): Sequential(
    (0): Linear(in_features=1568, out_features=512, bias=True)
    (1): ReLU()
  )
  (v): Linear(in_features=512, out_features=1, bias=True)
  (adv): Linear(in_features=512, out_features=10, bias=True)
  (model_tails): ModuleList(
    (0): Linear(in_features=512, out_features=1, bias=True)
    (1): Linear(in_features=512, out_features=10, bias=True)
  )
  (loss_fn): SmoothL1Loss()
) DoubleDQN:
- agent = <slm_lab.agent.Agent object at 0x7f3658600588>
- action_pdtype = Categorical
- action_policy = <function epsilon_greedy at 0x7f36683e92f0>
- explore_var_spec = {'end_step': 1000000,
 'end_val': 0.01,
 'name': 'linear_decay',
 'start_step': 10000,
 'start_value': 1.0}
- training_start_step = 10000
- gamma = 0.99
- training_batch_iter = 1
- training_iter = 4
- training_frequency = 32
- to_train = 0
- explore_var_scheduler = <slm_lab.agent.algorithm.policy_util.VarScheduler object at 0x7f3658600470>
- net = DuelingConvNet(
  (conv_model): Sequential(
    (0): Conv2d(4, 32, kernel_size=(8, 8), stride=(4, 4))
    (1): ReLU()
    (2): Conv2d(32, 64, kernel_size=(4, 4), stride=(2, 2))
    (3): ReLU()
    (4): Conv2d(64, 32, kernel_size=(3, 3), stride=(1, 1))
    (5): ReLU()
  )
  (fc_model): Sequential(
    (0): Linear(in_features=1568, out_features=512, bias=True)
    (1): ReLU()
  )
  (v): Linear(in_features=512, out_features=1, bias=True)
  (adv): Linear(in_features=512, out_features=10, bias=True)
  (model_tails): ModuleList(
    (0): Linear(in_features=512, out_features=1, bias=True)
    (1): Linear(in_features=512, out_features=10, bias=True)
  )
  (loss_fn): SmoothL1Loss()
)
- target_net = DuelingConvNet(
  (conv_model): Sequential(
    (0): Conv2d(4, 32, kernel_size=(8, 8), stride=(4, 4))
    (1): ReLU()
    (2): Conv2d(32, 64, kernel_size=(4, 4), stride=(2, 2))
    (3): ReLU()
    (4): Conv2d(64, 32, kernel_size=(3, 3), stride=(1, 1))
    (5): ReLU()
  )
  (fc_model): Sequential(
    (0): Linear(in_features=1568, out_features=512, bias=True)
    (1): ReLU()
  )
  (v): Linear(in_features=512, out_features=1, bias=True)
  (adv): Linear(in_features=512, out_features=10, bias=True)
  (model_tails): ModuleList(
    (0): Linear(in_features=512, out_features=1, bias=True)
    (1): Linear(in_features=512, out_features=10, bias=True)
  )
  (loss_fn): SmoothL1Loss()
)
- net_names = ['net', 'target_net']
- optim = Adam (
Parameter Group 0
    amsgrad: False
    betas: (0.9, 0.999)
    eps: 1e-08
    lr: 0.0001
    weight_decay: 0
)
- lr_scheduler = <slm_lab.agent.net.net_util.NoOpLRScheduler object at 0x7f36585c7438>
- global_net = None
- global_target_net = None
- online_net = DuelingConvNet(
  (conv_model): Sequential(
    (0): Conv2d(4, 32, kernel_size=(8, 8), stride=(4, 4))
    (1): ReLU()
    (2): Conv2d(32, 64, kernel_size=(4, 4), stride=(2, 2))
    (3): ReLU()
    (4): Conv2d(64, 32, kernel_size=(3, 3), stride=(1, 1))
    (5): ReLU()
  )
  (fc_model): Sequential(
    (0): Linear(in_features=1568, out_features=512, bias=True)
    (1): ReLU()
  )
  (v): Linear(in_features=512, out_features=1, bias=True)
  (adv): Linear(in_features=512, out_features=10, bias=True)
  (model_tails): ModuleList(
    (0): Linear(in_features=512, out_features=1, bias=True)
    (1): Linear(in_features=512, out_features=10, bias=True)
  )
  (loss_fn): SmoothL1Loss()
)
- eval_net = DuelingConvNet(
  (conv_model): Sequential(
    (0): Conv2d(4, 32, kernel_size=(8, 8), stride=(4, 4))
    (1): ReLU()
    (2): Conv2d(32, 64, kernel_size=(4, 4), stride=(2, 2))
    (3): ReLU()
    (4): Conv2d(64, 32, kernel_size=(3, 3), stride=(1, 1))
    (5): ReLU()
  )
  (fc_model): Sequential(
    (0): Linear(in_features=1568, out_features=512, bias=True)
    (1): ReLU()
  )
  (v): Linear(in_features=512, out_features=1, bias=True)
  (adv): Linear(in_features=512, out_features=10, bias=True)
  (model_tails): ModuleList(
    (0): Linear(in_features=512, out_features=1, bias=True)
    (1): Linear(in_features=512, out_features=10, bias=True)
  )
  (loss_fn): SmoothL1Loss()
)

 DoubleDQN:
- agent = <slm_lab.agent.Agent object at 0x7fc100a805c0>
- action_pdtype = Categorical
- action_policy = <function epsilon_greedy at 0x7fc1108682f0>
- explore_var_spec = {'end_step': 1000000,
 'end_val': 0.01,
 'name': 'linear_decay',
 'start_step': 10000,
 'start_value': 1.0}
- training_start_step = 10000
- gamma = 0.99
- training_batch_iter = 1
- training_iter = 4
- training_frequency = 32
- to_train = 0
- explore_var_scheduler = <slm_lab.agent.algorithm.policy_util.VarScheduler object at 0x7fc100a80588>
- net = DuelingConvNet(
  (conv_model): Sequential(
    (0): Conv2d(4, 32, kernel_size=(8, 8), stride=(4, 4))
    (1): ReLU()
    (2): Conv2d(32, 64, kernel_size=(4, 4), stride=(2, 2))
    (3): ReLU()
    (4): Conv2d(64, 32, kernel_size=(3, 3), stride=(1, 1))
    (5): ReLU()
  )
  (fc_model): Sequential(
    (0): Linear(in_features=1568, out_features=512, bias=True)
    (1): ReLU()
  )
  (v): Linear(in_features=512, out_features=1, bias=True)
  (adv): Linear(in_features=512, out_features=10, bias=True)
  (model_tails): ModuleList(
    (0): Linear(in_features=512, out_features=1, bias=True)
    (1): Linear(in_features=512, out_features=10, bias=True)
  )
  (loss_fn): SmoothL1Loss()
)
- target_net = DuelingConvNet(
  (conv_model): Sequential(
    (0): Conv2d(4, 32, kernel_size=(8, 8), stride=(4, 4))
    (1): ReLU()
    (2): Conv2d(32, 64, kernel_size=(4, 4), stride=(2, 2))
    (3): ReLU()
    (4): Conv2d(64, 32, kernel_size=(3, 3), stride=(1, 1))
    (5): ReLU()
  )
  (fc_model): Sequential(
    (0): Linear(in_features=1568, out_features=512, bias=True)
    (1): ReLU()
  )
  (v): Linear(in_features=512, out_features=1, bias=True)
  (adv): Linear(in_features=512, out_features=10, bias=True)
  (model_tails): ModuleList(
    (0): Linear(in_features=512, out_features=1, bias=True)
    (1): Linear(in_features=512, out_features=10, bias=True)
  )
  (loss_fn): SmoothL1Loss()
)
- net_names = ['net', 'target_net']
- optim = Adam (
Parameter Group 0
    amsgrad: False
    betas: (0.9, 0.999)
    eps: 1e-08
    lr: 0.0001
    weight_decay: 0
)
- lr_scheduler = <slm_lab.agent.net.net_util.NoOpLRScheduler object at 0x7fc100a47438>
- global_net = None
- global_target_net = None
- online_net = DuelingConvNet(
  (conv_model): Sequential(
    (0): Conv2d(4, 32, kernel_size=(8, 8), stride=(4, 4))
    (1): ReLU()
    (2): Conv2d(32, 64, kernel_size=(4, 4), stride=(2, 2))
    (3): ReLU()
    (4): Conv2d(64, 32, kernel_size=(3, 3), stride=(1, 1))
    (5): ReLU()
  )
  (fc_model): Sequential(
    (0): Linear(in_features=1568, out_features=512, bias=True)
    (1): ReLU()
  )
  (v): Linear(in_features=512, out_features=1, bias=True)
  (adv): Linear(in_features=512, out_features=10, bias=True)
  (model_tails): ModuleList(
    (0): Linear(in_features=512, out_features=1, bias=True)
    (1): Linear(in_features=512, out_features=10, bias=True)
  )
  (loss_fn): SmoothL1Loss()
)
- eval_net = DuelingConvNet(
  (conv_model): Sequential(
    (0): Conv2d(4, 32, kernel_size=(8, 8), stride=(4, 4))
    (1): ReLU()
    (2): Conv2d(32, 64, kernel_size=(4, 4), stride=(2, 2))
    (3): ReLU()
    (4): Conv2d(64, 32, kernel_size=(3, 3), stride=(1, 1))
    (5): ReLU()
  )
  (fc_model): Sequential(
    (0): Linear(in_features=1568, out_features=512, bias=True)
    (1): ReLU()
  )
  (v): Linear(in_features=512, out_features=1, bias=True)
  (adv): Linear(in_features=512, out_features=10, bias=True)
  (model_tails): ModuleList(
    (0): Linear(in_features=512, out_features=1, bias=True)
    (1): Linear(in_features=512, out_features=10, bias=True)
  )
  (loss_fn): SmoothL1Loss()
)
[2021-06-17 04:39:46,624 PID:38688 INFO __init__.py __init__][2021-06-17 04:39:46,624 PID:38689 INFO __init__.py __init__][2021-06-17 04:39:46,624 PID:38687 INFO __init__.py __init__][2021-06-17 04:39:46,624 PID:38690 INFO __init__.py __init__] Agent:
- spec = {'cuda_offset': 0,
 'distributed': False,
 'eval_frequency': 5000,
…
 'start_step': 0,
 'start_val': 0.01}
- policy_loss_coef = 1.0
- val_loss_coef = 0.5
- gamma = 0.99
- lam = None
- num_step_returns = 0.99
- training_frequency = 0.99
- to_train = 0
- explore_var_scheduler = <slm_lab.agent.algorithm.policy_util.VarScheduler object at 0x7f0478ec05f8>
- entropy_coef_scheduler = <slm_lab.agent.algorithm.policy_util.VarScheduler object at 0x7f0478ec08d0>
- calc_advs_v_targets = <bound method ActorCritic.calc_nstep_advs_v_targets of <slm_lab.agent.algorithm.actor_critic.ActorCritic object at 0x7f0478ec0588>>
- shared = True
- net = ConvNet(
  (conv_model): Sequential(
    (0): Conv2d(4, 32, kernel_size=(8, 8), stride=(4, 4))
    (1): ReLU()
    (2): Conv2d(32, 64, kernel_size=(4, 4), stride=(2, 2))
    (3): ReLU()
    (4): Conv2d(64, 32, kernel_size=(3, 3), stride=(1, 1))
    (5): ReLU()
  )
  (fc_model): Sequential(
    (0): Linear(in_features=1568, out_features=512, bias=True)
    (1): ReLU()
  )
  (model_tails): ModuleList(
    (0): Sequential(
      (0): Linear(in_features=512, out_features=10, bias=True)
      (1): Softmax(dim=None)
    )
    (1): Sequential(
      (0): Linear(in_features=512, out_features=1, bias=True)
      (1): Softmax(dim=None)
    )
  )
  (loss_fn): MSELoss()
)
- net_names = ['net']
- optim = Adam (
Parameter Group 0
    amsgrad: False
    betas: (0.9, 0.999)
    eps: 1e-08
    lr: 0.0001
    weight_decay: 0
)
- lr_scheduler = <slm_lab.agent.net.net_util.NoOpLRScheduler object at 0x7f0478e7f0f0>
- global_net = None
[2021-06-17 06:07:19,466 PID:41483 INFO base.py __init__] ActorCritic:
…
